DQN/outputs/TradingSystem_v0/20240706-192054/models/qr_dqn_checkpoint.pth (torch, 792260 bytes, 10 tensors)

fc1.weight f4 [256, 50]
000000 c6 92 90 bd 7c ee 7f bd fc 5a e7 3c b9 0c aa 3d
       -0.07059245 -0.062483296 0.028241627 0.08303208
000010 69 d5 f0 bd a5 ff ad bd ab e4 3a 3d 24 d8 09 be
       -0.11759455 -0.08496026 0.04562823 -0.13461357
000020 f2 f4 be 3c 0b 2b 03 3e 1f 1c 92 3d dc d0 0e 3e
       0.023310158 0.12809388 0.0713427 0.13946861
000030 ff 60 42 3d 09 ed 6b bc 74 12 84 3c 6d ba e5 3d
       0.047455784 -0.014399775 0.01612208 0.112171985
000040 e6 89 0a 3e 87 67 e6 bc e6 fb f9 3d bf f6 8c 3d
       0.13529167 -0.028125538 0.12206249 0.068830006
000050 91 c6 01 bd f7 2c 29 3d 05 c2 e3 bd 49 bb 43 3c
       -0.03168351 0.041302647 -0.11120991 0.011946508
000060 96 0e 0a 3e a2 90 88 3d aa d1 3a bc 72 6a 4e bc
       0.13482127 0.066682115 -0.011402527 -0.012598621
000070 54 41 da bd cc a4 24 3d 83 f0 5b 3c 56 f6 fc 3d
       -0.106569916 0.040196225 0.013424042 0.12351672
000080 ad 3f 63 3d 15 b1 90 3a 79 3f ce bd cd 2e 05 be
       0.055480648 0.0011039103 -0.100707 -0.13006134
000090 61 67 f7 3d fe de 01 be 0f 76 f1 3d 1d ce 0e bd
       0.12080265 -0.12682721 0.11790096 -0.034864534
0000a0 36 ca b1 bd bb 56 9e 3d af b4 ee bd b9 7b 27 3d
       -0.08681147 0.07731386 -0.116555564 0.040889475
0000b0 53 fb aa 3b 13 bd ab 3c c4 52 8e bd 78 d8 bc bd
       0.0052179485 0.020964181 -0.0694938 -0.09220976
0000c0 b5 63 03 3e b6 d4 c8 3d 92 25 19 3c a6 65 9f 3e
       0.12831004 0.098061964 0.009347336 0.3113224
0000d0 6b df 7a 3c 71 c5 5d be 6c 0e 26 be 97 a1 98 bd
       0.015312056 -0.21657349 -0.16216439 -0.07452696
0000e0 f1 5e 08 be 8f eb 70 be d4 f9 53 be f3 47 9d be
       -0.13317467 -0.23527358 -0.2070077 -0.30718955
0000f0 80 e3 84 bd 51 56 f5 3b 39 e9 ea 3e 95 dd fd 3c
       -0.06488705 0.0074870964 0.4588106 0.030989448
000100 6f 0f 8f be 16 40 47 bd 56 4e a3 bd 30 cd 73 3e
       -0.27941462 -0.0486451 -0.07973926 0.23808742
000110 c9 ed 59 bd 85 38 69 3d f7 68 c1 3b 42 dc 56 3d
       -0.053205285 0.056938667 0.0059024054 0.052456148
000120 ae 96 98 3d 66 b4 c9 3c f7 38 32 bd dc 82 9b bc
       0.07450615 0.024622153 -0.043511357 -0.018983297
000130 fa f2 25 3d 59 94 38 3d 10 dc 50 3e 0a 75 bf 3d
       0.040514924 0.04506335 0.20396447 0.09348495
000140 b9 8f a9 bd 21 ee 63 be 48 ef 9f 3d 96 8b e9 bc
       -0.08279366 -0.22258808 0.07809311 -0.028508943
000150 09 ed cc 3d 1e cf 85 3e 4b a0 9c be b5 41 d1 bd
       0.10006148 0.2613458 -0.30591044 -0.10217611
000160 ff f8 1d bd 35 36 ca be 3d ab 4e be dc 72 f6 be
       -0.03856754 -0.39494482 -0.2018251 -0.48134506
000170 b1 6e 46 bc 1b d1 40 be f8 b8 0c 3e a6 b4 b3 be
       -0.012111352 -0.18829767 0.13742435 -0.3509876
000180 74 7a 16 3d 72 3e 4a 3e db e3 4b be b7 55 61 bd
       0.036737874 0.19750383 -0.19911139 -0.055013385
000190 32 a5 76 3e ab fc 17 be a2 8f 3b bd 92 ae 67 3e
       0.24086455 -0.14842479 -0.045791276 0.22625187
0001a0 a4 4f 3e 3e f4 0f 7b bd 27 d3 70 be 39 2a 81 bd
       0.18585068 -0.06129451 -0.23518048 -0.063068815
0001b0 3e bb 00 bd c9 70 a2 bc d9 b8 d8 bd 79 11 32 be
       -0.031428568 -0.01982917 -0.10582132 -0.17389478
0001c0 50 d4 47 3e cc c9 92 be 70 7c 7d be 3c 59 ae 3d
       0.19514585 -0.28669584 -0.247545 0.08513114
0001d0 2f e6 e5 3d e0 c3 31 bb 2a cc 86 3d 5c f6 d1 bc
       0.11225545 -0.0027124807 0.0658191 -0.025630169
0001e0 23 e7 eb be 55 de 42 3d ad 48 2b 3d 68 5f 66 3e
       -0.4607478 0.047575314 0.041817356 0.22497332
0001f0 e8 cb 8c be 8c f6 05 3e a5 d3 92 3d 2b 9c 30 be
       -0.27499318 0.13082331 0.07169274 -0.17247073
000200 99 d1 d2 bd a6 44 6b be d6 0b 87 3d 29 21 94 bd
       -0.10293884 -0.22975406 0.065940544 -0.07232887
000210 3b f0 4c bd c7 ce f9 3d cd a1 53 bd f9 17 7a bc
       -0.05003379 0.12197643 -0.051667977 -0.015264505
000220 bf 53 ce bc 64 a1 55 be 7d 60 73 3e 3a 29 6b 3e
       -0.025186418 -0.20862347 0.23767276 0.22964945
000230 87 20 38 be 77 2d 88 bd 42 e5 7e 3d 65 4c a3 bd
       -0.17981158 -0.06649297 0.062230356 -0.079735555
000240 36 6a 0c be 5b 1b 16 3e 67 35 8b be d6 2e 5d be
       -0.13712391 0.14658873 -0.2718918 -0.21599898
000250 92 c5 0e be ff a1 83 3e 91 d6 c8 3b cf f1 c0 bd
       -0.13942555 0.2570953 0.006129094 -0.09421121
000260 4f b9 f6 bd 67 8c 83 3c 25 c8 4d be 77 af c0 bd
       -0.120470636 0.01605816 -0.2009588 -0.09408467
000270 ae f9 45 3b c2 79 98 3c 5f 9a fa bd fd 17 a8 bc
       0.0030208635 0.018612746 -0.12236475 -0.020519251
000280 4c e5 93 bc 11 85 bb bd 5e 0c 38 be 41 fa 00 3e
       -0.018053673 -0.0915624 -0.17973468 0.12595464
000290 27 a7 87 3e c1 53 c6 bc 75 59 e1 3d 2f 37 37 be
       0.26494715 -0.024209859 0.11003391 -0.17892145
0002a0 f3 c0 f8 3d 62 fb de be 51 97 68 3e db 8b 94 3e
       0.12146177 -0.43551165 0.22713973 0.2901295
0002b0 98 66 6b 3e 2d 1d 81 3e 2b 23 ed bd 61 a0 95 be
       0.22988355 0.25217572 -0.115789734 -0.29223922
0002c0 1f c5 18 be 0c 8a 21 3e 72 4d 22 be be 93 24 be
       -0.14918946 0.15775317 -0.15849856 -0.16071984
0002d0 cc 7d 8d bd 30 52 fa 3d 10 3c 82 3e ee 93 1a 3e
       -0.069087595 0.12222707 0.2543645 0.15095493
0002e0 b8 56 2b be 29 4c 21 3e 85 47 76 bd ce 25 18 be
       -0.167323 0.15751709 -0.0601268 -0.14858171
0002f0 d6 41 ca bd 45 16 b0 be d0 7e 61 3e 30 2e 20 3d
       -0.098758385 -0.3439199 0.22021031 0.039106548
000300 37 65 99 bd ac f3 09 3d 25 05 81 bd 18 0c f2 3d
       -0.07490008 0.03367965 -0.06299809 0.11818713
000310 92 6b 91 bd 72 e0 23 3b 30 f0 2c 3e f1 c8 a2 3e
       -0.071005955 0.0025005606 0.168885 0.3179393
000320 16 92 86 3d 67 c1 7a 3c 0e 3f 2a be 20 09 13 3e
       0.065708324 0.0153049 -0.16625616 0.1435895
000330 23 81 85 3d d8 e2 43 be 44 31 8b 3d 67 bd 82 3e
       0.065187715 -0.19129503 0.06796506 0.25535128
000340 b3 fd af bd 56 37 83 3d 54 f9 fb bd 67 6e b0 3d
       -0.08593311 0.06407039 -0.12303415 0.086148076
000350 63 2e 3d 3e 9b cf 5c 3e f0 7e 04 be 0d d8 9d bd
       0.18474726 0.2156357 -0.12939048 -0.07707224
000360 82 b3 47 bd 0b 11 be bd 48 cf a2 bd b4 68 4f bd
       -0.048755176 -0.092805944 -0.07949692 -0.050636962
000370 46 17 e3 3d ab c4 97 3e 84 d7 fa bd 5c 72 de 3c
       0.110884234 0.29642233 -0.122481376 0.02715414
000380 06 84 44 bd 63 67 1b be 5c fe ef bc 39 00 35 bb
       -0.04797747 -0.15176158 -0.029296093 -0.002761854
000390 a5 b4 8a 3e f0 9c d5 be 13 b0 98 3e d9 ee 90 be
       0.27090946 -0.41721296 0.29821834 -0.28307226
0003a0 e2 6f 15 3e 4c 87 55 3e 90 7a a2 bc c6 5f 92 3e
       0.14593461 0.20852393 -0.019833833 0.28588694
0003b0 0b 67 27 3a c6 9f 8b 3d df a6 dd bc 0b 9e 5d 3e
       0.0006385899 0.06817584 -0.02705711 0.2164232
0003c0 80 14 4d be 41 e6 01 3e 81 25 92 3e 5c df 04 bd
       -0.20027351 0.12685491 0.28544238 -0.032439575
0003d0 ed a4 22 3e be 78 15 3e 4d 88 7f 3d de 12 2d 3e
       0.15883227 0.1459684 0.062385846 0.16901729
0003e0 ff 65 d4 bc df df 57 bd 5c 97 e7 bd f8 11 94 bd
       -0.025927542 -0.052703734 -0.113081664 -0.0722999
0003f0 6e 0f 65 bd 3a 5d 09 3e 27 38 89 be 77 aa 0f be
       -0.055922918 0.1341447 -0.26800653 -0.14029871

fc1.bias f4 [256]
000000 6b c8 fd bd 33 df 68 3c 84 79 f3 3b ce af 69 bc
       -0.12391742 0.014213371 0.0074302573 -0.0142631065
000010 1b a7 1e 3c 6f 1b d9 bb 95 6f 9e 3c 68 b4 90 3c
       0.009683396 -0.006625585 0.019340316 0.01766415
000020 a7 6d be bb 6b 18 9a 3c cc 89 c5 bd fb 7b ad 3b
       -0.0058114114 0.018810472 -0.09645423 0.0052943206
000030 16 9c a7 3b 9f a1 0b 3c 70 1b 25 bd 3a 24 53 3c
       0.0051150424 0.00852242 -0.04030937 0.012887055
000040 1f 17 a9 3c 36 4d 8d 3c c7 c1 8a 3c 4d c9 63 3c
       0.020640908 0.017248731 0.016938103 0.013902974
000050 09 da bf 3c 91 6d 02 be de 36 70 3c b5 49 bb 3b
       0.023419397 -0.12737109 0.014661519 0.0057155737
000060 8d 1f 80 3a 0e db ca bd 83 26 e7 3b e4 6b ea bd
       0.0009775028 -0.099050626 0.0070541515 -0.1144636
000070 79 17 88 bd 2e 28 0a 3c 84 eb 15 3c cc 19 64 3c
       -0.06645102 0.008432431 0.00915039 0.013922166
000080 39 4f b7 3c bb 87 28 bd d2 0d 85 3b 01 0e 13 3c
       0.022376643 -0.041145068 0.0040604854 0.008975507
000090 35 9f d6 3a 78 82 77 3c ef c6 ae bd 1b 72 86 3c
       0.0016374352 0.01510679 -0.08534037 0.016411832
0000a0 42 7a 98 3c b8 03 10 be 96 1d ca bd ba 3f cf bb
       0.018612985 -0.14063919 -0.09868924 -0.0063247355
0000b0 37 38 ff 3b 62 a8 d4 3b cb 7d 23 3c 2f b3 d2 3b
       0.0077886838 0.0064897994 0.009978722 0.0064300518
0000c0 15 0e bb bb b4 7f 4e bc 56 f8 d7 3b 59 ea 84 3c
       -0.005708466 -0.012603689 0.0065908832 0.016225027
0000d0 bc 77 3c 3c f3 73 0d be 81 d3 04 bd 0d 7d 0c 3c
       0.011503156 -0.13813762 -0.03242827 0.008574736
0000e0 79 e2 1a 3c ae 52 8b 3c e4 39 2e 3c f9 ae 54 bc
       0.009453409 0.017007198 0.010633919 -0.01298117
0000f0 9d 65 eb bd 2f 34 d9 bd 8f b5 0e be c5 d4 5a 3c
       -0.114939906 -0.10605656 -0.13936447 0.013356392
000100 b7 7e 2a 3c 0b 05 87 3c d9 76 e9 b8 bc dc 34 bb
       0.010406188 0.016481897 -0.00011132443 -0.0027597388
000110 67 f7 fe bd 8a 53 e8 bd c8 16 52 3c fd 71 81 bc
       -0.12449532 -0.11344059 0.012822814 -0.015801424
000120 0a f7 ca bd 41 67 20 3c 0c 4f 39 3c 05 1b 2d 3c
       -0.099104 0.009790243 0.01131035 0.010565524
000130 ca cd ab 3c 9a 17 10 3c 57 ef 8b bc 5e 31 d6 bc
       0.020972151 0.00879469 -0.0170819 -0.026146587
000140 ca a4 87 3b 52 4e c2 bc a3 60 99 3b 0d 61 78 3c
       0.0041395174 -0.023718987 0.0046807094 0.015159857
000150 05 8d b8 ba 02 99 0a be ed 7b 8e 3b 38 46 d4 bc
       -0.0014080113 -0.1353493 0.004348269 -0.02591239
000160 c0 56 0c 3c a6 6b 2f bc f1 81 be bc 2e 0b 09 3c
       0.008565605 -0.010706818 -0.02325532 0.008364482
000170 d9 69 6a 3c 51 7c f1 bd ee 7d f5 bc b6 63 09 be
       0.014307463 -0.117912896 -0.029967275 -0.13416943
000180 df 98 12 bd eb df 82 3c 87 db 1f 3c 15 7e 9e 3c
       -0.03579032 0.015975913 0.009756929 0.01934723
000190 de 1d a6 3a d4 20 05 3c 78 1b 04 be b0 21 b8 bc
       0.0012673696 0.008125503 -0.12901103 -0.022477001
0001a0 c6 3f b5 bd 43 2c 0c 3c c5 a8 4a 3c 8c ee ef 3b
       -0.088500544 0.008555475 0.012369339 0.007322138
0001b0 16 2a 53 3c 88 68 99 3c 6a 67 c0 bc 0c 51 30 3c
       0.012888452 0.018726602 -0.023486812 0.010761511
0001c0 f5 92 b5 3b d8 e2 b4 3b 51 21 31 bd 4f 6f cc bd
       0.0055412003 0.005520206 -0.043244664 -0.09982168
0001d0 f0 c8 09 be 4c 87 9a ba 19 08 ce 3b 55 d3 c7 bd
       -0.13455558 -0.0011789589 0.0062875864 -0.09757105
0001e0 11 30 51 3c 49 f4 09 be 35 2e 8f bc 14 a1 ae 3c
       0.012767808 -0.13472094 -0.017478088 0.021317042
0001f0 ce 36 1a 3c a5 2e a3 bc cb 4f ca bb 1c c4 94 bd
       0.0094124805 -0.019919703 -0.006174063 -0.072639674
000200 73 a0 4a bb 87 d1 e2 bd b9 54 50 3c 66 8e c8 bc
       -0.003091839 -0.110751204 0.012715512 -0.024481963
000210 61 1b bd 3a 57 20 a3 bd 55 f1 a2 3c df 12 06 be
       0.0014427715 -0.07965153 0.019890467 -0.13093136
000220 cb 9b 97 bc b7 1a 9b 3c 3c b6 07 be 9c 61 0a 3c
       -0.018506905 0.018933637 -0.1325311 0.008446123
000230 1e 7f dc bd e5 01 06 3c 3e ff 3a 3c 75 96 04 be
       -0.10766433 0.008179163 0.011413394 -0.1294802
000240 be e4 66 3c 57 7a a4 3c 02 ac 25 3b bd 2e 0b 3b
       0.014092622 0.020077867 0.0025279527 0.0021237575
000250 11 01 9a bd 59 31 cd 3b 88 b9 0b be 94 05 1f 3c
       -0.07519735 0.006261986 -0.13644993 0.00970592
000260 9c f6 9a bd c9 89 d1 bd 08 99 4f 3c bd e4 89 3c
       -0.07566568 -0.102313586 0.012670763 0.016832704
000270 15 33 02 be ee 5a fc bd 2b 8e 22 3c eb c2 25 3c
       -0.12714799 -0.12322031 0.009921591 0.010117273
000280 a7 7a ae 3c 3f 2a a8 3c d9 2f 16 3c af 8d 06 be
       0.02129872 0.020527957 0.009166681 -0.13139986
000290 35 31 9d bd 19 86 03 be 21 91 f9 bc 18 71 a7 3b
       -0.07675401 -0.12844123 -0.03046471 0.0051099174
0002a0 33 9c 07 be 80 90 e8 3b 7d f1 92 3c ad b8 d3 bd
       -0.13243179 0.007097304 0.017937416 -0.103379585
0002b0 14 83 a6 bd a5 f0 a7 3c 62 b7 86 3c d3 b9 bc 3b
       -0.0813047 0.02050049 0.016444866 0.0057594567
0002c0 4a 6b b6 bd 41 b2 46 bc 08 81 06 be 60 10 96 3c
       -0.089071825 -0.01212746 -0.13135159 0.018318355
0002d0 f7 be 93 bc 2b c5 aa 3c 17 2c 0a be b9 d3 12 bc
       -0.018035395 0.02084597 -0.13493381 -0.008961611
0002e0 b7 a2 5b 3b 54 4b a9 bc a3 02 5c 3c 69 00 0d be
       0.0033513734 -0.020665802 0.013428363 -0.13769688
0002f0 95 77 c0 3b 09 0c 0b be 7f bf 8e bc 9e fd 30 3c
       0.0058736303 -0.1357881 -0.017425297 0.010802655
000300 ac 1d 7a bd 8c 98 59 3c f5 cd 41 bc d9 b6 d0 bc
       -0.061063454 0.013280999 -0.011828889 -0.025477814
000310 e3 c9 92 3b 24 23 8d 3c 75 84 af bd 6f e0 0b be
       0.004479633 0.01722867 -0.08570186 -0.13659833
000320 8a 5b 12 3c 98 24 de bc 7d ca 82 bc 50 87 4e 3c
       0.008932957 -0.027117059 -0.015965695 0.012605503
000330 7c 51 c3 bb 52 ff 8a 3c 16 d8 bd bd 3b 58 e0 3b
       -0.0059606414 0.01696745 -0.09269731 0.0068464554
000340 41 fc 59 3c 4b fe 9c ba 2e 02 05 3c 46 cf dc 3b
       0.013304771 -0.0011977641 0.008118195 0.006738576
000350 21 e2 31 bc 64 77 88 ba e3 fa 08 3c 13 c8 1c bb
       -0.010857136 -0.0010411558 0.008360597 -0.0023922964
000360 55 d1 51 3c bb bb e0 bd 98 9a 0a bc aa 63 85 3c
       0.012806256 -0.10973307 -0.00845971 0.016282875
000370 a0 e1 12 3c c8 e5 df ba b8 b0 74 3b 46 22 8d 3c
       0.008964926 -0.001708203 0.0037336778 0.017228257
000380 e1 c4 be bd a6 0c 2e 3c 5f 4a 2e bb d2 91 25 3c
       -0.093148954 0.010623133 -0.0026594622 0.010105567
000390 b8 78 92 3c df 7f 7a 3c 65 0c 4b 3c 2b ea 96 bd
       0.017879829 0.015289276 0.012393092 -0.07368883
0003a0 3c ae cb bd 1b d0 07 be f7 74 5d 3c 49 e2 e1 bb
       -0.09945342 -0.1326298 0.013516656 -0.0068934304
0003b0 3a 9d 75 3c 2d 3b 9f bb 3d 28 e7 bd 34 1c 2a 3c
       0.014991099 -0.004859349 -0.11286972 0.010382701
0003c0 0a bd 1b 3c 6d 2e 0e 3c dc 92 3a bb ab fc ed bd
       0.00950552 0.008678061 -0.0028468883 -0.11620458
0003d0 15 ad 41 3c 9d 07 8d 3c 8d 46 19 3c e8 cd 84 bd
       0.011821051 0.017215544 0.0093551995 -0.06484586
0003e0 57 8e cd bd 79 d7 ee bd 36 2e a5 3c 76 3c e8 bd
       -0.10036915 -0.11662192 0.020163637 -0.11339657
0003f0 31 f6 66 3c 26 be da 3b 98 5f e6 bc 88 09 de bc
       0.014096783 0.0066754995 -0.028121755 -0.027104154

fc_value1.weight f4 [256, 256]
000000 70 7b 6c bd 0b ba 7e bc 4d 5f 4a bd 91 d3 71 bd
       -0.057734907 -0.015547286 -0.049407292 -0.059039656
000010 c1 ff 94 3d 43 d3 ff bd 71 06 c9 bd f9 e7 30 bd
       0.07275344 -0.12491467 -0.09815682 -0.043189976
000020 c1 fd 73 3c 6d 4a 19 be 90 71 38 3c 57 bb 2d 3d
       0.014892043 -0.14969797 0.011257544 0.04241499
000030 88 b0 70 bd f1 76 cb bd fc a1 a6 bd 16 fb e3 3b
       -0.058762103 -0.09934796 -0.08136365 0.006957422
000040 e6 dc 07 bd 7e 0c a1 3c dd 3e 36 bd 78 29 36 3d
       -0.03316965 0.019659277 -0.044493545 0.04447314
000050 94 13 2c 3d 3a de 1f 3d bd 56 9a bc e3 7e 07 be
       0.04201086 0.03903029 -0.018840188 -0.13231997
000060 60 65 6c bd 66 41 64 bd 65 b2 e7 bd 7a 4d 03 bd
       -0.057713866 -0.05572643 -0.11313323 -0.03205631
000070 8a 27 46 3d 73 14 d6 3d bc b1 5d 3d c6 61 99 3c
       0.04837755 0.10453119 0.05412458 0.01872338
000080 9d ac 2f bd 0e f6 23 be 6b 8b f2 bb 1e 1d 8f 3d
       -0.042889226 -0.16011831 -0.007401874 0.069879755
000090 ae f6 15 3d 8a e1 79 bc c8 3e 59 bd 40 70 2a 3d
       0.036612205 -0.015251527 -0.05303839 0.041610956
0000a0 f0 82 1a bd 00 1e 75 3c e0 e8 8f 3c 28 9b 9f be
       -0.037722528 0.014960766 0.017567098 -0.31173062
0000b0 ed 25 d1 3c 32 5b 70 bd a0 5b 81 3d 93 93 99 3c
       0.02553078 -0.05868072 0.06316304 0.018747127
0000c0 da cc 05 bc 66 5c fc bc 20 8b 92 3d 74 ba 55 3d
       -0.008166516 -0.030805778 0.07155442 0.05217977
0000d0 69 38 d1 3c 70 14 60 bc bc 83 86 be b4 38 14 bd
       0.025539594 -0.013676748 -0.2627238 -0.03618689
0000e0 10 7a 7d 3d bb 79 25 bd a3 3b 59 3b 56 f0 8f bd
       0.061883986 -0.040399294 0.0033147119 -0.07028262
0000f0 c4 bd fa bc 20 d6 11 bc aa cb 66 3d 9e ee b9 3d
       -0.030608065 -0.008901149 0.056346573 0.09078716
000100 82 f7 6c bd 06 7a 11 bd 65 97 89 bd 1d 8a 18 3e
       -0.05785323 -0.03551676 -0.06718329 0.14896436
000110 a0 5b 7b bc 16 14 1e bd e5 76 90 bd c0 8b 8c 3d
       -0.015341669 -0.038593374 -0.07053927 0.06862593
000120 08 52 66 3d 46 74 af bc 79 f5 3d 3e 63 45 29 bd
       0.056230575 -0.021417748 0.18550672 -0.041325938
000130 ef c7 f7 bc 81 38 bd bd c6 43 29 3d ff 31 19 be
       -0.030246703 -0.09239293 0.0413244 -0.14960478
000140 f0 99 0e be 15 92 27 be 4f 34 bd bd fe bc 2d 3d
       -0.1392591 -0.1636432 -0.09238493 0.042416565
000150 20 93 ce 3d ec 38 3d bd 7e 47 93 bd 91 af 0c be
       0.100866556 -0.046196863 -0.071913704 -0.13738848
000160 f4 62 e6 bc 7b f5 23 3c 8c d2 60 be e3 1d 04 3d
       -0.028123356 0.010007258 -0.21955317 0.032255065
000170 5a 52 10 be 94 58 ff bc 12 34 e9 be 50 8c 6d 3c
       -0.14093915 -0.031170167 -0.4554754 0.014498785
000180 fb b5 36 3e 3b 7f 0c 3d c5 b8 aa 3d 1c 29 54 3d
       0.17842858 0.034301024 0.08336023 0.051797017
000190 b8 46 3e be 60 66 26 3d a4 25 45 3d 15 ad fd 3d
       -0.18581665 0.040624976 0.0481316 0.123865284
0001a0 20 6a b2 3c d5 6f ac 3d f4 69 9b bb 30 9c 17 3d
       0.02177912 0.08419768 -0.004742855 0.037014186
0001b0 8c fc 69 3d 50 a4 9c 3d 40 27 f0 bc 64 6d 37 be
       0.057125613 0.076485276 -0.02931559 -0.17912823
0001c0 6a cd 4a bd da df 01 be 07 fd 3a be 70 1a 43 bc
       -0.049512304 -0.12683049 -0.18260585 -0.011908159
0001d0 80 a7 bc ba 38 27 85 bd 7c 4a 94 bd c0 a8 02 bb
       -0.0014393181 -0.06501621 -0.07240769 -0.0019937009
0001e0 4f f2 17 be 50 47 68 bd 72 1e 90 bd 99 41 23 bc
       -0.14838527 -0.056708634 -0.07037057 -0.00996437
0001f0 bf 9d a3 3d 33 73 13 be b0 c5 49 be 9e f5 42 bd
       0.07989072 -0.14399414 -0.19704318 -0.04759752
000200 d9 e7 2b be 94 dc cc 3c 64 c4 87 3d d2 fb d2 bc
       -0.16787662 0.025007524 0.066292554 -0.025754843
000210 17 d9 94 3c 40 d5 be ba 5b 9c 63 bb f4 66 cd bc
       0.018169923 -0.0014559403 -0.0034730646 -0.025073506
000220 e6 28 c6 bb 19 6a 0c bb c4 3a 87 bc 91 7a c5 3d
       -0.006047356 -0.0021425544 -0.016507514 0.09642518
000230 9e bf 2a 3d d6 f4 7c bc 56 60 8b bc 60 18 6e bc
       0.041686647 -0.015439233 -0.01701371 -0.014532179
000240 cc 22 7f bc 06 df 99 bd 11 2f b5 bd a3 ba 89 3d
       -0.015572261 -0.075132415 -0.08846868 0.06725051
000250 18 33 0f 3d f6 a1 c2 bd f0 de 82 bb a5 c4 9b bc
       0.034960836 -0.09503548 -0.0039938614 -0.019014666
000260 0a 9c d4 bc 42 10 22 3d 53 ab 0d bc 57 05 8c bd
       -0.025953311 0.039566286 -0.008646804 -0.06836956
000270 c0 9b 19 bd d8 4d 76 bc ed 33 c2 bc 7e c2 e4 bb
       -0.03750205 -0.015033208 -0.0237064 -0.006981193
000280 d8 2a 1d bd 55 e7 cd 3b 6d c4 0d 3e 3a 83 3a bd
       -0.038370937 0.0062836804 0.13844462 -0.045535304
000290 96 67 d9 bb 76 d5 35 3d 81 92 70 be 10 1c e2 3c
       -0.006634663 0.044393025 -0.23493387 0.027601272
0002a0 60 16 64 3d 3e 6e 97 bb 1d 0c a3 bc ea 92 17 bd
       0.0556854 -0.004621296 -0.019903237 -0.037005343
0002b0 34 d9 9a 3c 82 d2 9d bd 3d 0c 2c 3d 8a 18 25 bd
       0.018902399 -0.07706167 0.04200386 -0.040306605
0002c0 60 8f 27 3b 20 94 27 3d ac 18 3f 3d 5c c3 7e bc
       0.0025567636 0.040912747 0.04665439 -0.015549507
0002d0 45 6e 66 3d aa df 88 3d 62 1c 37 3d e7 3e 84 bc
       0.056257505 0.066832855 0.044704802 -0.016143275
0002e0 0b d3 5d bb 8a a2 a3 be eb 47 76 bd 80 f2 bd 3c
       -0.0033847715 -0.31959945 -0.06012718 0.023186922
0002f0 04 83 a6 bc 9c 5f 31 bd a4 ab fc bb f2 09 d7 bc
       -0.020326145 -0.04330407 -0.007710891 -0.02624986
000300 0a ac 52 bd 70 d8 d5 bd 33 cb 2e 3c 67 51 ed bc
       -0.0514336 -0.10441673 0.010668564 -0.02896948
000310 c5 86 9b 3d 41 21 a1 bd d6 d9 3c 3d 50 8f a0 3c
       0.075940646 -0.07867671 0.046106182 0.019599587
000320 92 f5 8c bc 16 3a 56 3e 15 9a a9 bd 34 33 ce bd
       -0.01720694 0.20920596 -0.08281342 -0.1006836
000330 61 7d 83 3d ac 17 0a 3c b0 e5 c4 3c 38 cd 35 3d
       0.064203985 0.008428495 0.024035305 0.044385165
000340 dd af 0d 3d 6d b8 02 3d a4 24 98 bd 4e 97 33 bc
       0.034591544 0.031914163 -0.07428864 -0.010961367
000350 ab 63 d8 3c b6 e8 23 3e a3 f5 c7 bc 32 26 48 be
       0.026414713 0.16006741 -0.02440912 -0.1954582
000360 fa a7 03 3c 90 b6 ef 3c 1a 7e 0e bd f3 1a 47 bd
       0.008035654 0.029261857 -0.03478823 -0.048609685
000370 8b c7 74 bc 8d 33 e0 3d e6 e0 3a 3c a5 4b de bc
       -0.014940153 0.109473325 0.011406159 -0.02713568
000380 ea f1 55 bd 22 b1 a4 be 97 50 dd 3d 87 f3 37 be
       -0.05223266 -0.32166392 0.10806387 -0.17963992
000390 06 a9 5d be d2 e2 83 3a d3 47 66 bd 94 5f bd 3c
       -0.21646509 0.0010062105 -0.05622084 0.023116864
0003a0 e8 81 41 bd 78 7c 8e 3c 0b a9 ec 3d 34 65 04 bd
       -0.04724303 0.017393336 0.1155568 -0.032323077
0003b0 ff ad f6 bd f3 5a 23 be 26 a3 7a 3d e3 40 ca 3d
       -0.12044906 -0.15952663 0.061190747 0.098756574
0003c0 2d 68 e7 bc 48 3d 90 3d 31 66 19 3e 3e 95 37 3d
       -0.028247917 0.070429385 0.14980389 0.044820063
0003d0 75 2d 45 bc 82 a1 c6 3c 5c 0d 45 be 5a 0d 9d bc
       -0.012034764 0.024246935 -0.19243377 -0.019171406
0003e0 14 95 7f bd e0 ed 19 3d b8 7d 9d bb 18 40 15 3c
       -0.06239803 0.03758037 -0.0048062466 0.009109519
0003f0 5c f0 b9 3d 33 94 87 3c 63 0c 2a be d1 de e1 3c
       0.09079048 0.01655016 -0.16606288 0.027572067

fc_value1.bias f4 [256]
000000 46 75 cb 3c 7c 11 bc 3c 10 37 da 3c 26 57 59 bc
       0.024836194 0.022957556 0.026637584 -0.013265407
000010 9b ee a3 bc ea 3e c7 bc 80 e1 da bc c6 5b b6 3c
       -0.020011237 -0.024321992 -0.026718855 0.022260558
000020 60 92 0c 3d a0 66 d9 3b d5 51 05 3d 5e b6 9e b9
       0.03431928 0.0066345483 0.032548744 -0.00030271983
000030 10 f7 c9 3c 17 49 33 3d f2 48 c6 3c 64 4a e3 3c
       0.024653941 0.043770876 0.024204705 0.027745433
000040 e4 11 2f bd fc a8 10 bc e5 0d 45 ba 15 21 c3 3c
       -0.04274167 -0.0088293515 -0.0007517024 0.023819486
000050 5d ab 53 bb 40 55 dd bc e6 82 0e bd cf ed 89 bc
       -0.0032298185 -0.02701819 -0.034792803 -0.016837029
000060 46 38 ad 3c 91 ce c3 bc 60 13 ba bb 39 6d 5b 3c
       0.021144997 -0.02390221 -0.005678579 0.01339274
000070 d2 40 2e 3d 24 64 0a bc e9 a8 82 3c 2a cc 98 3c
       0.042542286 -0.008446727 0.015949683 0.01865204
000080 c9 d3 09 bd 67 ac 01 bd 37 0b ce ba f1 a7 2e bb
       -0.03364924 -0.031658556 -0.0015719895 -0.0026650394
000090 11 52 5b bc a9 20 8d 3c 2d 1e 2f bd 2f 19 7f bd
       -0.013386265 0.017227488 -0.042753387 -0.062279876
0000a0 28 33 32 3d 3e ea 05 bd 73 50 3d 3d 40 58 1e bd
       0.043505818 -0.032694094 0.0462193 -0.03865838
0000b0 b0 41 f9 bc 93 db c6 bc d0 8b 3b 3d 80 e2 70 3c
       -0.03042683 -0.024274623 0.045787632 0.014702439
0000c0 f8 af 04 bd 6c 61 9c 3c 97 e0 6c 3d 90 73 57 bd
       -0.03239438 0.019089423 0.057831373 -0.052600443
0000d0 6f a8 8c 3c 9d 6c 3c 3d 9b 13 09 3d 2c 29 80 bc
       0.01717016 0.04600202 0.033465963 -0.015644632
0000e0 a3 e5 6b bd d5 57 ca 3c a2 f0 15 3c be 1c 87 3d
       -0.057592046 0.024700085 0.00915161 0.06597279
0000f0 a2 66 2b bd 60 a4 74 bd 72 c2 2f 3d 46 78 00 3d
       -0.041845925 -0.059727073 0.042910047 0.0313647
000100 62 67 20 3c 36 9d 81 bd 8a a1 17 bd 5a 38 4b bd
       0.009790273 -0.06328814 -0.03701929 -0.049614288
000110 46 6f 52 bd 18 f0 bb 3c 5e 97 01 3c ee b6 53 3c
       -0.05137565 0.022941634 0.007909624 0.012922032
000120 cc 3e 5d bd e9 cf c6 bb 63 0a c3 3a f1 1b 6b bd
       -0.054014966 -0.0060672653 0.0014880415 -0.057399694
000130 eb 8a 72 3d a7 f6 38 3d 28 0a 00 bd 8e 2f 56 bd
       0.059214514 0.0451571 -0.031259686 -0.052291445
000140 77 36 8a 3c c5 4d a4 3c 85 f0 86 bb 3b 60 37 3c
       0.016871674 0.020056615 -0.0041180276 0.011192377
000150 7c c5 73 bd bd 2f 7c bc b4 0f 88 bb a3 15 65 3d
       -0.059514508 -0.015392241 -0.0041522626 0.055928838
000160 b0 84 2a 3d aa 1e 8e 3c 53 e1 1e bd af 64 8f 3a
       0.041630447 0.017348606 -0.038789105 0.001094004
000170 f7 52 ab bc 07 fc 02 3b ec 58 48 bd a7 35 2f 3c
       -0.020913584 0.0019986646 -0.048912928 0.010693944
000180 88 08 a2 3b 27 e2 be bb ad 08 22 3d ea a1 a6 3a
       0.0049448647 -0.0058252993 0.039559055 0.0012713049
000190 a6 bd 36 bc 9a 8a af 3d 4b b5 eb 3b 05 38 4c 3d
       -0.011153614 0.08571358 0.0071932427 0.049858112
0001a0 a0 19 1d bd 14 86 93 bd 56 58 d5 3c 36 de c2 bb
       -0.038354516 -0.07203308 0.026043098 -0.0059468998
0001b0 52 35 6e bd cc 18 3f bd 95 38 1f 3b c9 00 a9 bc
       -0.05815632 -0.046654508 0.00242952 -0.020630257
0001c0 44 93 5c bd 4e e9 32 3c b6 7d 6b bd 65 f5 63 3c
       -0.05385138 0.010919882 -0.057492934 0.013913487
0001d0 a8 01 38 bd 76 9e 0a bd d5 3a 3c bd 82 3d 8f bd
       -0.044923455 -0.033842526 -0.045954544 -0.069941536
0001e0 88 40 5d bc 17 58 bb bc f8 f1 3d 3d 92 e5 56 3c
       -0.013504155 -0.022869153 0.046373338 0.013116257
0001f0 3c 4d 83 bd 18 41 e7 bc 58 76 2c bd 3b 77 42 bd
       -0.06411216 -0.028229281 -0.04210505 -0.04747699
000200 fc 63 b5 3c 40 82 a2 3b 16 ef 27 3d b5 12 0e bd
       0.022142403 0.0049593747 0.040999494 -0.03468581
000210 73 93 84 bd 45 4b 81 3c 2c ee 42 3d 24 9a 70 bd
       -0.06473436 0.015782962 0.04759042 -0.05874075
000220 c4 66 14 3c 59 f6 e5 3c b5 f3 4b 3d 13 14 c4 3c
       0.009057704 0.02807157 0.049792964 0.023935353
000230 cd 5d a4 3d e4 a7 7e bd 68 14 09 3d 09 b2 6a 3c
       0.080257036 -0.06217183 0.033466727 0.014324673
000240 dd 01 cf 3c 39 90 2a 3d d7 c5 de 3c aa 46 40 bb
       0.025269443 0.041641448 0.027193947 -0.0029338994
000250 10 0b be 3b 17 d8 4f bd 83 6e 1c bd f5 05 86 bb
       0.0057996586 -0.05074319 -0.03819133 -0.0040900656
000260 70 b6 27 3d 5f e0 29 bd 25 77 81 bd f2 81 57 3d
       0.04094547 -0.041473743 -0.06321553 0.05261416
000270 39 6b d5 3c f1 9f 55 bc 27 98 a1 bc 14 62 52 bd
       0.026052104 -0.013038621 -0.019725872 -0.051363066
000280 d2 70 3e 3d ff ec 92 bb e3 14 0e 3d 89 1e 6f 3d
       0.046494313 -0.0044838185 0.034687888 0.05837873
000290 78 7e bb 3c 5e 88 f4 bc 62 76 36 3d ae f0 d4 3c
       0.022887453 -0.029850181 0.044546492 0.025993671
0002a0 94 95 42 bd 07 1e 40 3d 51 c3 3a bd 50 bc 51 3c
       -0.04750593 0.046903636 -0.045596424 0.012801245
0002b0 18 86 4d bd 48 ac 93 bb 10 0a 2d 3c 6e ed 16 bd
       -0.05017671 -0.0045066215 0.010561481 -0.036847524
0002c0 f0 b8 8c bc f9 40 a1 3c f0 1e 60 bd a4 7e c6 3c
       -0.017178029 0.019684302 -0.054717004 0.024230309
0002d0 30 f7 e9 bc 33 01 fc bb e4 f8 72 3c d8 d8 34 3d
       -0.028560251 -0.0076905726 0.014829848 0.04415211
0002e0 b4 1b 7d bd d3 5e aa 3d ed 76 78 bd 18 6c 5f bd
       -0.061793998 0.083188675 -0.06066029 -0.054546446
0002f0 d7 f8 a0 3c 99 aa 43 3c 3e 41 81 bd c4 16 32 bd
       0.019649906 0.011942529 -0.06311272 -0.043478742
000300 5e 93 08 bd 04 ae b7 3c 10 4e 73 bd d6 d5 a3 3d
       -0.033343665 0.022421844 -0.059400618 0.0799977
000310 2f fe 8b 3c c7 74 1c bc 22 11 3c bd 40 ea 18 ba
       0.017088978 -0.009549326 -0.045914777 -0.0005833246
000320 35 b8 fd 3a ff 3b d4 3c e5 a8 e6 3b 94 61 37 bd
       0.0019357266 0.025907515 0.0070391768 -0.044770792
000330 a8 03 62 bd 52 0f f9 bc 89 3f 58 3c 5d 50 34 bc
       -0.055179268 -0.030402813 0.013198742 -0.011005488
000340 d8 18 39 ba 27 a5 c7 bc ca 24 25 bd 2a 64 2a bc
       -0.0007060892 -0.024370743 -0.040318288 -0.010399858
000350 c3 ce 66 bc ef 83 dc bc b6 ad 5f bd da 99 18 bd
       -0.014087382 -0.02691838 -0.054609023 -0.0372561
000360 36 41 61 3c d3 d2 26 bd 6b a7 81 bd 29 90 55 3d
       0.013748458 -0.0407284 -0.063307606 0.052139435
000370 20 00 a1 3c c0 c7 4f 3c 06 41 4b bd e7 66 60 bc
       0.01965338 0.012681901 -0.049622558 -0.013696409
000380 81 b7 21 3d 8f 1e 21 3d 96 59 59 bd bc 9e 6b bd
       0.039481644 0.039335784 -0.05306395 -0.057524428
000390 69 95 4b bc fc 8b 63 bd 5c fd 5e bd 08 5e 40 3b
       -0.012425759 -0.05555342 -0.05444084 0.0029352922
0003a0 19 ed 1c 3d b8 45 58 bd 4d e2 cb bc 59 45 55 3d
       0.03831205 -0.052800864 -0.024888182 0.05206809
0003b0 c8 03 61 bb 1d 89 8e 3c dd 35 71 ba 70 e2 63 bd
       -0.003433453 0.017399365 -0.00092014467 -0.05563587
0003c0 a7 53 15 ba b2 ae 3a bd 4c a3 e5 bc 04 e1 03 bd
       -0.0005696364 -0.04557676 -0.028031968 -0.032197013
0003d0 c6 15 06 bd 2e 88 57 3c a7 c4 8f 3d 81 63 d5 bc
       -0.03273561 0.013155026 0.0701993 -0.026048424
0003e0 32 2a 80 3c aa 0e 38 bd d5 a0 cc bb d7 cf 57 3d
       0.01564512 -0.04493586 -0.0062447586 0.052688446
0003f0 62 16 b9 bc 24 aa b0 ba 2c a4 0b 3c 27 73 10 bd
       -0.02259368 -0.001347844 0.008523028 -0.035266068

fc_value2.weight f4 [51, 256]
000000 82 42 47 be 8c b2 02 3f 76 29 92 3e b2 a2 c6 3d
       -0.19458964 0.5105369 0.28547257 0.096990004
000010 38 11 96 3c df fa ea bd 68 72 4e be 0c 8d 78 be
       0.018318757 -0.11473631 -0.2016083 -0.24272555
000020 ea f6 13 be 89 f0 93 be 49 10 db bd 92 fd 87 3e
       -0.14449659 -0.2889445 -0.106964655 0.26560646
000030 4d 76 83 3e 54 ff 3b 3e 9e 39 21 3e 8f d5 8f 3e
       0.25676194 0.18359119 0.15744635 0.2809262
000040 a2 3a 07 bd 4e f8 3b be 3b 5b 8b be 06 63 bd bd
       -0.0330149 -0.1835644 -0.2721804 -0.09247403
000050 6f 97 47 3d 55 0c 32 3d 77 bd 10 3c 8d cf 26 3e
       0.048728403 0.043468792 0.008834234 0.16290112
000060 59 d4 41 3e 24 9d f8 3d 96 c7 37 3e e1 75 b4 3e
       0.1892866 0.12139347 0.1794723 0.35246184
000070 53 4a d1 3d 4c 22 05 3e f6 c5 92 bc f2 fb 04 3e
       0.10219254 0.13001364 -0.01791666 0.12986735
000080 aa 61 f2 3e ca 13 51 3d 19 64 77 be 16 b6 3d be
       0.47340137 0.051044263 -0.24159278 -0.18526492
000090 e6 fd 20 3c 4f 1c 13 be 81 98 5a be fc 9d 3e 3f
       0.009826159 -0.14366268 -0.21347238 0.74459815
0000a0 01 f5 8a 3e 88 c5 48 bc 4e 67 a9 bd f2 55 79 bd
       0.27140048 -0.012254126 -0.08271657 -0.06087298
0000b0 c9 48 08 3c 33 90 76 be 7e 36 a6 bc 3d a4 26 be
       0.008318135 -0.24078445 -0.020289656 -0.1627359
0000c0 38 50 98 bc f7 ef c7 3d a1 bd 89 bd b0 7a c4 3b
       -0.018592939 0.097625665 -0.06725622 0.005996071
0000d0 8c 97 5a be 49 0b 5c bc 45 90 8f be 69 86 8e 3e
       -0.21346873 -0.013430425 -0.28039756 0.27836922
0000e0 6c 77 3b bd be c5 35 be cf 00 76 3e b8 25 76 bd
       -0.045768186 -0.17751214 0.24023746 -0.060094565
0000f0 84 a5 29 bd 86 19 40 bd 1e 49 bf bd e3 4a 8f 3c
       -0.041417614 -0.04689934 -0.09340118 0.017491763
000100 94 2a 82 3e 06 e7 20 3c e0 0f d5 bc 04 53 4c bd
       0.2542311 0.009820705 -0.026008546 -0.049883857
000110 a8 91 97 3c 74 f4 aa bc 4d 61 2c be f0 35 82 bd
       0.018502071 -0.020868517 -0.16833992 -0.06357944
000120 c4 b2 76 3d 95 19 0e be cc ae 46 3e 80 09 10 3d
       0.060229078 -0.13876946 0.19402617 0.03516531
000130 ef cc fc bd 50 b0 67 3d d4 c4 a9 3c 20 3d 71 3c
       -0.123437755 0.05656463 0.020723738 0.014724046
000140 ac 09 8a be 98 4d 8b 3c 46 0c e7 3d 99 b2 83 be
       -0.26960504 0.017004773 0.11281638 -0.25722197
000150 14 74 0f bd 48 d4 27 3e db 4f 19 be b3 1c 5e 3e
       -0.03502281 0.16389573 -0.14971869 0.21690635
000160 70 04 31 bd 2f 31 a3 be fe 3c 9b 3c 11 f5 54 3c
       -0.043217123 -0.31873462 0.018949982 0.0129978815
000170 9d d6 04 bd 04 0a 4d be fa 65 60 bd 77 ab 8e 3e
       -0.032431234 -0.20023352 -0.054784752 0.27865192
000180 d3 8c 07 3e 25 23 c1 3e b3 f3 03 be 28 7c 21 3e
       0.13237314 0.37722126 -0.12885933 0.15770018
000190 c6 41 21 be 0b e1 f5 bd a2 2a 44 3e e9 6b 08 be
       -0.15747747 -0.12005814 0.19156888 -0.13322414
0001a0 30 af 22 3d 2a 84 c8 3e 23 d0 a8 3e 11 21 6a 3e
       0.039717853 0.39163333 0.32971296 0.22864176
0001b0 f6 7d c5 bd 2c ee 34 3d f9 f6 77 be 5c 8e cf bd
       -0.09643166 0.04417245 -0.24215306 -0.10134575
0001c0 69 64 55 bd db 92 1a 3d 60 58 20 bd d7 70 94 3e
       -0.05209771 0.03773771 -0.03914678 0.2899234
0001d0 f8 bf 36 3d 8f ce 1e 3c 64 c7 2c bd 71 c1 e4 3e
       0.04461667 0.009692802 -0.04218234 0.44678834
0001e0 f0 7e a3 bd d8 f9 ff bc 17 6a 5f be 61 5d 62 be
       -0.07983196 -0.031247064 -0.21817814 -0.22105934
0001f0 00 82 f2 3c f7 1a 52 bd 73 c6 ba bc 75 17 6b bd
       0.029603004 -0.051295247 -0.022799706 -0.057395417
000200 8c dc 9a 3e a1 72 53 3d 36 f4 64 3d 89 dd b5 bb
       0.3024639 0.05162299 0.05589696 -0.0055500907
000210 8f 68 a0 3b a5 c6 ad 3e 7a d6 f1 bc e2 a7 60 3d
       0.004895277 0.33940616 -0.029521216 0.054847606
000220 f7 a1 7e 3e f3 4a 42 3e f7 9f 95 3e 06 ef 82 3c
       0.24866472 0.18973903 0.29223606 0.015983116
000230 93 07 b5 3c b5 54 5f bd c9 52 98 be 5c 84 77 be
       0.022098338 -0.054524142 -0.2975066 -0.24171585
000240 ef c2 5d 3e 15 12 13 3e 57 f3 8c be 28 99 cc 3d
       0.21656393 0.14362366 -0.27529404 0.0999015
000250 c5 5f 43 3d a8 47 8d 3e 33 49 5b 3d 38 15 83 3e
       0.047698755 0.27593732 0.053536605 0.25602126
000260 da bb 95 bc 9a 3f a7 3d b5 ef b3 bc 67 64 fa bb
       -0.018278051 0.08166428 -0.021964887 -0.0076413634
000270 b1 11 8a be 3a 08 2c bd 6f 71 0f 3e 62 98 1d 3d
       -0.26966622 -0.042000033 0.14008115 0.0384754
000280 2a 6d b0 bd 1c 4f 94 bc c0 1d 42 bd 20 03 a5 3c
       -0.086145714 -0.018104129 -0.047391653 0.020143092
000290 cf cc a1 3e 25 dc 35 3c a3 80 5d 3e a5 69 02 bd
       0.3160157 0.01109985 0.21631102 -0.03183903
0002a0 96 4e 44 3d de 69 67 3e c3 bc d1 3d e4 cd 44 be
       0.047926508 0.22598979 0.102410816 -0.19219166
0002b0 1a 3f 10 bd 40 2b b9 3e 9f 5f 34 3e 93 08 eb 3c
       -0.03521643 0.3616581 0.17614602 0.028690612
0002c0 f4 00 1e 3e 2a 3a 45 be 88 b8 e9 bc 5b 2e a6 3e
       0.15430051 -0.19260469 -0.028530374 0.3245724
0002d0 d4 a9 ac bc fe 72 b6 bd 46 a9 57 3e 59 34 64 3e
       -0.021077074 -0.08908652 0.21060666 0.22285594
0002e0 c2 4a 98 3c 5e 89 d3 bd cd 9d 1e 3e 34 29 9f 3c
       0.018590335 -0.10328935 0.15489884 0.019428827
0002f0 be 81 4d be 2e e6 8a 3d 27 a4 02 3c e8 9f 36 3e
       -0.20069024 0.067821845 0.007973707 0.17834437
000300 5a f1 38 3d a8 13 57 be eb 81 11 3d 55 00 a7 bd
       0.045152046 -0.21003592 0.03552429 -0.0815436
000310 bb 47 dd 3b 35 2b f7 3d 08 2e 3b bc fd 15 a4 3d
       0.0067529357 0.12068788 -0.011424549 0.080120064
000320 ba c1 73 3e 95 04 b2 bc 3c 99 03 3d 82 5c 06 bd
       0.2380437 -0.0217307 0.032128558 -0.032803066
000330 8a e8 0b 3d 07 e1 96 bc 56 cd 4c 3e a0 90 c5 3c
       0.034157313 -0.018417848 0.20000204 0.024116814
000340 f1 af c7 3c 23 7c a3 bc b8 8f 11 3d 12 1e 37 be
       0.024375888 -0.019956654 0.03553745 -0.17882565
000350 88 b4 cb bd 6a e4 92 3e 4c c0 f3 3c 64 f5 1e 3d
       -0.09946543 0.2868989 0.02975478 0.03880824
000360 e5 b7 c5 3d 2d c1 63 bd b4 7d f8 3c b5 51 f7 3d
       0.09654216 -0.05560415 0.030333377 0.12076131
000370 bf 48 36 be 4f 81 56 be 80 4f 9f ba e3 64 4e bd
       -0.17801188 -0.20947765 -0.001215443 -0.05038918
000380 b7 71 8e 3e e0 ce b3 3c 30 50 c1 bc ce 88 08 bd
       0.27821133 0.021949232 -0.023597807 -0.033333592
000390 44 3e 7c 3b f8 18 79 bc 68 62 b8 3c fa 7a 97 3e
       0.0038489262 -0.015203707 0.022507861 0.2958601
0003a0 1e c5 48 3e fc aa 56 3d 57 2d ec 3e 25 d4 f7 bd
       0.19606444 0.052409157 0.46128342 -0.1210101
0003b0 c1 20 85 be f3 d8 47 bc 41 e2 1d 3d bf bc a8 3c
       -0.26001552 -0.012197721 0.03854585 0.020597814
0003c0 70 27 00 3e 60 eb ff bc b5 2a 5a 3e be 78 70 bd
       0.12515044 -0.031240165 0.21305354 -0.0587089
0003d0 9d 2f ef 3e 30 b7 f7 bd ab 88 16 bc 7f ac 71 3e
       0.46716014 -0.12095487 -0.009187858 0.23600958
0003e0 07 f6 84 3e aa ba 51 3d 15 b2 da bd 34 70 20 3e
       0.25968954 0.051203407 -0.10678498 0.15667802
0003f0 ed a1 74 3e f7 f8 f9 3e 23 9e 44 be 1c 09 ad 3c
       0.23889895 0.48822758 -0.1920095 0.021122508

fc_value2.bias f4 [51]
000000 85 85 9f bd 69 a9 01 bd 68 85 0d bd b4 94 fb bb
       -0.07789139 -0.031655703 -0.034551054 -0.007677639
000010 a6 8f d0 ba 21 0f a2 3b f0 92 9f 3c 9a 8c 0a ba
       -0.0015911951 0.004945651 0.019479245 -0.00052852335
000020 c6 99 db ba 47 d9 05 3c 56 9d d8 ba 80 e6 62 3c
       -0.0016754202 0.008169479 -0.0016526382 0.013848901
000030 cb 16 66 3c a4 07 62 3c f0 c4 a6 b9 7f 9a 74 3b
       0.01404352 0.013795767 -0.00031808717 0.0037323532
000040 3f 09 51 3c 2f f0 ac 3c ed b1 4f 3c 7c 25 49 3c
       0.012758552 0.021110622 0.012676698 0.012277003
000050 5d 7e a9 3c 65 88 d6 3c 0c 1c fb 3b 7b 49 1f 3d
       0.020690138 0.026188085 0.0076632556 0.038888436
000060 a6 e9 1e 3d 2a 96 92 3c 66 b2 08 3d 87 61 fa 3c
       0.038797043 0.01789387 0.03337326 0.030564083
000070 dc db c5 3c 74 b1 54 3c 36 ef 1f 3d ac 44 f9 3c
       0.024152689 0.012981761 0.03904649 0.030428253
000080 fd ed ff 3c e2 6f aa 3c de 27 2a 3d d3 40 41 3d
       0.031241411 0.020805303 0.041541927 0.04718096
000090 33 0b 11 3d c3 a7 1c 3d 5f 31 58 3d 5c a0 1d 3d
       0.03541107 0.038245928 0.05278146 0.03848301
0000a0 28 02 38 3d 5d f6 5f 3d 34 72 14 3d 09 57 51 3d
       0.04492393 0.05467831 0.036241725 0.051108394
0000b0 6d 4b 17 3d 93 7a 16 3d df c4 4e 3d 55 48 52 3d
       0.036937166 0.03673799 0.05048072 0.051338512
0000c0 b2 eb 9b 3d 17 52 b1 3d d2 9a 75 3e
       0.07613315 0.086582355 0.2398484

fc_advantage1.weight f4 [256, 256]
000000 50 9f c2 3b 48 51 06 3d c9 65 e0 3d d5 7c 94 3d
       0.0059394017 0.03279236 0.10956914 0.07250372
000010 6a 25 20 bc 36 42 0b 3e 02 ca 33 bd 95 7a 68 bd
       -0.009774545 0.13599476 -0.04389382 -0.05675753
000020 a9 a5 91 bd fa 79 b5 3d 0c c3 2b bd 31 df 23 bd
       -0.07111675 0.08861156 -0.041934058 -0.040007774
000030 5d 0f 1b be 0d cf 48 bd 51 2b 57 bd 59 a4 0d be
       -0.1514258 -0.049025584 -0.052531544 -0.13832225
000040 eb 81 6e 3d 9e c4 cb 3d 6f 6d a6 3a ba 0c 63 bd
       0.05822937 0.09949611 0.0012697409 -0.05543206
000050 9d 1d b1 bd 56 18 42 3d 4a dd 2e 3d c0 b0 be bd
       -0.086482264 0.04738649 0.042691506 -0.09311056
000060 8d a1 81 3c 2e 10 42 3d 24 a6 9e 3d 80 a7 a6 bc
       0.015824104 0.04737871 0.077465326 -0.020343542
000070 e4 e6 d6 3c 90 f7 01 3b 9c 83 26 bd dc 95 48 3d
       0.026233144 0.0019831397 -0.040652856 0.048971042
000080 fe 88 f7 bd 4e 64 27 bd a0 77 48 bd 99 0c 09 be
       -0.12086676 -0.040867142 -0.04894221 -0.13383712
000090 67 73 f3 bd b1 d1 eb 3b 9a 83 3b bd e2 f1 af 3c
       -0.118872456 0.007196628 -0.045779802 0.021477643
0000a0 eb 4e 01 3e 78 03 bf 3c 30 02 85 3b 5d 45 38 be
       0.12627761 0.023317084 0.0040590987 -0.1799521
0000b0 e1 28 7f bd 62 74 13 3d 34 5f 92 3d 18 e5 4e 3c
       -0.062294845 0.035999663 0.07147065 0.012627862
0000c0 9d 29 29 be b6 ef ac 3d 36 27 6d 3c 52 57 76 3d
       -0.1651978 0.08444159 0.014474681 0.06014187
0000d0 0f d1 94 3d 6a b5 0f bd 7f 1c b9 3e f8 0a 08 3c
       0.07266437 -0.03508512 0.36154553 0.008303396
0000e0 bd 35 7f bd a4 b9 81 bd 36 e1 ee bc 23 aa 91 3d
       -0.06230711 -0.06334236 -0.029160123 0.07112529
0000f0 56 23 10 3d d0 c4 23 3c 76 7a 01 bd 53 d4 86 bc
       0.03518995 0.009995654 -0.03161093 -0.016458666
000100 aa dd 21 3c 0e d1 51 3d 38 7a 15 3d 4c 07 6d bd
       0.009879509 0.05122476 0.03649351 -0.057868287
000110 ce f0 49 bd 24 2b 5e 3d 40 a2 c0 bd 89 29 f2 3d
       -0.049301915 0.05424036 -0.09405947 0.118243285
000120 06 74 7c bd 20 23 cf ba 56 a9 e2 3d 53 ac e9 bb
       -0.061634086 -0.0015803315 0.110674545 -0.0071311384
000130 4c e1 8e 3c 3e db 45 3d c8 87 a4 3e 21 72 fc bd
       0.017441414 0.04830479 0.32134843 -0.12326456
000140 46 39 bd 3d f6 4b 2f 3e 69 c6 cf bd c7 ec 4a be
       0.0923944 0.1711882 -0.101452656 -0.19816886
000150 f2 aa 89 3d 1a c7 77 3d 63 41 2d 3d 75 3f 15 3c
       0.06722058 0.060492612 0.042298686 0.009109368
000160 a7 b7 78 3d f9 fd 58 be 8e 55 ab bd 37 d8 bf bc
       0.06072202 -0.21190633 -0.08365928 -0.023418529
000170 5d 90 16 3c f8 fa 37 3d 2d 2c 5b 3d 00 1c 45 b9
       0.009189692 0.044917077 0.053508926 -0.00018797815
000180 81 21 75 be 2b d8 ab 3d c2 04 88 bd e9 ae 0a 3d
       -0.23938562 0.0839084 -0.066415325 0.033858214
000190 4d cb 37 be c6 01 24 3d 32 52 72 bd b6 57 4e be
       -0.17948647 0.040040754 -0.05916042 -0.20150647
0001a0 04 5b c0 3c c6 d6 88 3d 15 37 84 bd 89 95 d1 3c
       0.0234809 0.0668159 -0.064558186 0.025584
0001b0 71 ad 21 3a 7c f5 3e bd 5f 8b fa bd 3f 70 65 bc
       0.00061675074 -0.04662083 -0.12233614 -0.014003812
0001c0 08 1b 1c 3d 4e 88 b3 3d df a9 da 3d 80 b2 17 bc
       0.038111717 0.087662324 0.106769316 -0.009258866
0001d0 30 08 ef 3b 05 12 88 bd 44 12 7f 3c 30 57 25 3c
       0.007294677 -0.06644062 0.01556832 0.010091588
0001e0 92 92 69 3d 56 a6 7e bd a5 57 b3 be d1 5f 0a bc
       0.057024546 -0.06217035 -0.35027805 -0.008445696
0001f0 99 1b ba 3d 1a db 39 3e a4 c5 35 3e 78 17 61 bd
       0.09087295 0.18149987 0.17751175 -0.054954022
000200 05 a2 0b bd 92 92 08 bd 26 51 ac bd ec a7 16 3d
       -0.03409006 -0.033342905 -0.08413915 0.036781237
000210 55 5a 18 be 28 40 66 3c ed 10 72 3d f0 e7 a6 bb
       -0.14878209 0.014053382 0.059098173 -0.005093567
000220 c3 71 8b be 1e 5b a6 3c 20 86 c8 bb 1a 43 5f 3d
       -0.2723523 0.02030712 -0.0061195046 0.054507352
000230 ea ab 64 bd b7 64 77 3c 0f 11 c9 3c 10 08 0c 3d
       -0.055828013 0.015099696 0.024544267 0.034187376
000240 36 42 ae bd f1 fc 45 3d 3d e5 a1 bd 53 89 43 be
       -0.085087225 0.048336927 -0.07905052 -0.19095354
000250 c4 a8 11 bd b5 9b 28 bd 3e 11 5f bd 6e ca a1 bb
       -0.035561338 -0.04116412 -0.054459803 -0.0049374616
000260 56 10 80 3d 20 e0 d9 bb c9 ca 4e 3c c9 3d a5 bd
       0.06253116 -0.0066490322 0.01262159 -0.08068425
000270 28 06 6f bc 06 61 73 bd 8f d2 ac bd ff e0 b3 3d
       -0.01458887 -0.0594187 -0.08438598 0.08783149
000280 78 d5 f6 3d 18 81 54 3d 01 6a 98 bd 78 ec 34 3d
       0.12052435 0.051880926 -0.07442094 0.044170827
000290 4c 73 4b bd 84 00 c6 bc 8a 5d 7a 3b 6a 44 ee 3b
       -0.049670503 -0.024170168 0.0038202726 0.007271339
0002a0 d2 cf 67 bd 53 66 dd 3c 64 26 aa bd a8 d6 bc bc
       -0.056594677 0.027026331 -0.08308104 -0.023051575
0002b0 b0 9b 78 3d 22 37 bc 3a 67 80 1b 3c 3d 8d d0 bd
       0.06069535 0.0014359693 0.009491063 -0.10183189
0002c0 70 24 e7 bc dd 0d a4 bd f2 d0 35 3d 97 d4 dc bc
       -0.028215617 -0.08010457 0.04438872 -0.02695684
0002d0 ff dc d9 bd 6f fb 9a be da d8 1a 3d 43 90 d6 3d
       -0.10637855 -0.30269954 0.037804462 0.104767345
0002e0 34 11 94 3d 09 a1 bc be c7 2c 28 be 14 b7 c5 3c
       0.07229844 -0.3684161 -0.16423331 0.02413515
0002f0 a9 ef a9 3d 40 71 21 3b f5 e4 e8 bd 5a db 3e 3d
       0.08297665 0.0024634153 -0.11371795 0.04659591
000300 88 f2 4f bc dd be 4b 3d 20 70 c1 be a6 b4 ef bd
       -0.012692101 0.04974257 -0.37780857 -0.11704378
000310 b4 a1 0b bd a7 1c ff bb b0 26 b6 3b a0 52 ad bc
       -0.03408976 -0.007785398 0.005558811 -0.021157563
000320 f4 f5 e5 bc e7 75 39 bd fb 92 8a 3b ad 88 80 3d
       -0.028071381 -0.045278456 0.004228947 0.06276069
000330 ce fd 88 bd 97 2c b7 3d 84 8a ce 3c a1 4c 0c 3c
       -0.066890344 0.08944052 0.025212534 0.008563192
000340 78 0a e1 bd fe f0 0b 3d 09 6b 11 3d 35 02 f5 3c
       -0.10988325 0.034165375 0.035502467 0.029908279
000350 ef fc 06 3e 7b de 40 3e cc 62 a8 bc 16 32 0f 3e
       0.13182424 0.1883487 -0.020554923 0.1398395
000360 26 3e 5d 3d 30 c0 03 3d d0 33 47 bc 9f db 2a bd
       0.054014347 0.032165706 -0.012158349 -0.041713353
000370 b2 a4 a6 3c 8d 7f 45 be 2d 5e 8f 3d fb fa 04 3e
       0.020342205 -0.19286938 0.070003845 0.12986366
000380 c0 fe 8e bb 17 bd 99 3d 9f 7a 56 be b2 8c a2 bd
       -0.0043638647 0.07506769 -0.20945214 -0.07936992
000390 c5 5f b7 3d f5 ba 92 3c 40 46 18 be 98 98 d2 bc
       0.089538135 0.017911414 -0.14870548 -0.025707528
0003a0 04 5e b2 bc da e8 5d bd 79 dc 4d be da 5e 3a 3e
       -0.021773346 -0.054177143 -0.20103635 0.18200245
0003b0 61 b5 1f bd f1 3b d8 bd 30 23 2b bc 61 c1 a4 3d
       -0.038991336 -0.10558308 -0.010445401 0.080446966
0003c0 4e 88 58 3c 14 d2 1d bd 4e 7b 5b be b8 59 4a bc
       0.013216091 -0.038530424 -0.21433756 -0.012350492
0003d0 71 25 2c 3d 2b dc ee 3d 38 e6 ab bd de 2a 03 3d
       0.042027894 0.116630875 -0.0839352 0.032023303
0003e0 f0 c3 fa bb e0 75 e0 3c 63 f1 19 3d d4 31 ac 3c
       -0.007652752 0.027399957 0.03758372 0.021019854
0003f0 a3 0c 49 bd f4 6d d7 3d c9 27 92 be 6d d9 85 bd
       -0.049084317 0.10519019 -0.2854598 -0.06535611
